slop_min5_minilm_sentences/topic_embeddings.safetensors (safetensors, 130648 bytes, 1 tensors)

topic_embeddings f4 [85, 384]
0	0xbca68509	-0.020327108
1	0xbb3489bd	-0.0027547919
2	0x3c06715f	0.008205741
3	0x3b832156	0.0040017767
4	0x3cfa8301	0.030580046
5	0xbc1dd4eb	-0.009633283
6	0x3c98bc92	0.018644605
7	0xbc8f6f7a	-0.01750921
8	0x3c42fabc	0.0119006
9	0xbc6a8ec2	-0.014316263
10	0x3c23f560	0.010007232
11	0x3d0263d9	0.031833503
12	0x3c45281b	0.012033488
13	0xbc225d1c	-0.009909894
14	0xbb89c320	-0.004204169
15	0xbc102ba8	-0.008799471
16	0x3bfec523	0.0077749654
17	0xbce98ecd	-0.028510476
18	0xbcd7d3c7	-0.0263461
19	0xbc465880	-0.012106061
20	0xba4f47b4	-0.0007907108
21	0x3b5e902c	0.0033960445
22	0x3c7a1e3b	0.015265997
23	0x3b00e6db	0.001966885
24	0x3ba8e099	0.0051537273
25	0x3c04f053	0.008113938
26	0xbc7f5ca5	-0.015586053
27	0xbc52e2f7	-0.012871495
28	0x3bc49569	0.0059992564
29	0xbc57b423	-0.0131655065
30	0x3b953c67	0.0045543197
31	0x3d06ee0c	0.032941863
32	0x3c7a9a9c	0.015295651
33	0x3c888b1b	0.016667893
34	0xbb3989ef	-0.0028310975
35	0x3c8229b0	0.015889019
36	0x3ae00151	0.0017090236
37	0x3c2754dc	0.010213103
38	0x3caecdb3	0.02133832
39	0xbc17d855	-0.009267886
40	0x3ba89a62	0.005145357
41	0xbd455929	-0.048180733
42	0xbbd2bd86	-0.0064312844
43	0xbad56f40	-0.0016283765
44	0x3c0693f8	0.008213989
45	0x3ba384be	0.0049901893
46	0xbc9400bf	-0.018066762
47	0xbc958d14	-0.018255748
48	0xbb7e022d	-0.003875862
49	0x3a830669	0.0009996417
50	0xbd24bbcf	-0.04021817
51	0xbcfe4a63	-0.03104133
52	0x3bfad0d4	0.007654289
53	0xbd044ae6	-0.03229799
54	0x3bd23e12	0.0064160908
55	0xbc7f17d5	-0.015569647
56	0xbb994834	-0.0046777967
57	0x3c05eece	0.008174611
58	0x3c71f3ad	0.0147675695
59	0x3b8bea10	0.004269846
60	0x3c0ca529	0.008584299
61	0xbc42cfb5	-0.0118903415
62	0xbbfff07a	-0.0078106495
63	0x3d18183a	0.03713248
64	0x3d23d86e	0.040001325
65	0x3c3c4c0f	0.011492743
66	0xbbf51ccb	-0.007480239
67	0x3b7ca81d	0.0038552352
68	0xbcf145ba	-0.029452194
69	0x3ac63e01	0.001512468
70	0x3c4c315a	0.012462938
71	0x3b1ac120	0.0023613647
72	0x3a695000	0.00089001656
73	0x3d089b5f	0.0333513
74	0x3b381330	0.0028087609
75	0xbc01749b	-0.007901336
76	0x3c641045	0.013919895
77	0xbc2288d2	-0.009920316
78	0x3caf3b9e	0.021390732
79	0xbc8fb9a6	-0.017544579
80	0x3cc8a63e	0.024493333
81	0xbca789a3	-0.020451372
82	0x3b54d146	0.003247337
83	0x3c6e6854	0.014551241
84	0xb8d53157	-0.00010165822
85	0xbbd03e37	-0.006355073
86	0x3bbebb54	0.005820671
87	0xbcd950dc	-0.026527815
88	0x3c4f8466	0.012665844
89	0x3c1aa50d	0.009438765
90	0xbd0b47ee	-0.034004144
91	0xbcd7d382	-0.026345972
92	0x3cf4ccff	0.029882906
93	0x3c36c94c	0.011156391
94	0xbba459f6	-0.005015607
95	0x3a83c39a	0.0010052801
96	0xbcee376b	-0.02907916
97	0xbc81493b	-0.01578199
98	0xbcf5f663	-0.030024713
99	0x3d412d92	0.0471626
100	0xbcb90a5b	-0.022587946
101	0x3c9f2a45	0.019429335
102	0x3b1adb46	0.0023629232
103	0xbcb64fa6	-0.022254776
104	0x3b73c911	0.0037198702
105	0xbcc93d9b	-0.024565509
106	0xbb5ba1c2	-0.0033513163
107	0x3a907c72	0.0011023416
108	0xba63ef74	-0.0008695044
109	0x3bd44866	0.006478357
110	0xbd12d802	-0.035850532
111	0x3b9ca8fa	0.0047808858
112	0x3c23003f	0.009948789
113	0xbc9e3c90	-0.019315988
114	0x3cfd39ca	0.030911345
115	0xbb7db5fe	-0.0038713212
116	0xbb0ea428	-0.0021765325
117	0x3cbd3f2f	0.023101417
118	0x3b31a950	0.0027108975
119	0x3ba75265	0.0051062577
120	0x3c7efabe	0.015562711
121	0x3ce03ccb	0.027372738
122	0xbcad62fe	-0.021165367
123	0x3cbce4c0	0.023058295
124	0x3af15d30	0.0018414613
125	0xbcf8705f	-0.03032702
126	0xbcf74ee6	-0.030188989
127	0x895c2174	-2.6497266e-33
128	0x3c3ebd56	0.011641821
129	0x3c5ae016	0.01335909
130	0x3cdd4122	0.027008597
131	0x3cb93c42	0.022611741
132	0x3cdcfcfa	0.026976097
133	0xba6fb35d	-0.00091438537
134	0xbcfd1d54	-0.030897774
135	0xbb70016e	-0.0036621946
136	0xba3e1f6e	-0.0007252608
137	0x3bcdc1df	0.0062792148
138	0xbb50f97c	-0.0031886986
139	0x3c802f2c	0.015647493
140	0xbc83e981	-0.016102554
141	0x3ce07291	0.02739838
142	0x3c75eabe	0.01500958
143	0xb7e490d8	-2.7247166e-05
144	0xbca642a1	-0.020295443
145	0x3ce06052	0.02738968
146	0x3b478feb	0.0030450772
147	0xbc8bf510	-0.017084628
148	0x3caee281	0.02134824
149	0xbc8b6d6e	-0.017019954
150	0x3ab9e2c8	0.0014181966
151	0xbc3d1a86	-0.011541968
152	0xbb92a4cc	-0.0044752117
153	0x3c7d2f8d	0.0154532315
154	0x3c1aea5d	0.009455291
155	0xbc6203b7	-0.013794831
156	0x3d3f9bf3	0.046779584
157	0x3c702bde	0.014658896
158	0xbd1d44ff	-0.038395878
159	0x3c946ab9	0.018117296
160	0xbc05bd85	-0.008162861
161	0xbc6df96d	-0.0145248
162	0x3c6e40e6	0.01454184
163	0x3c977266	0.018487167
164	0xbc078021	-0.008270294
165	0xbd259925	-0.040429253
166	0xb9b6fb19	-0.00034900827
167	0x3cb19e47	0.021681918
168	0xbc8f5236	-0.017495256
169	0x3cc1f48c	0.02367618
170	0xbcd66ed8	-0.026175901
171	0xbb8c5701	-0.0042828326
172	0xbc45bc3a	-0.0120688025
173	0x3d2d3003	0.042282116
174	0x3ca3b57e	0.019984003
175	0xbc93aba2	-0.018026177
176	0xbc1434e6	-0.009045815
177	0x3c93e40f	0.018053083
178	0xb88f6aea	-6.838686e-05
179	0x3ce534c1	0.027979257
180	0x3c184192	0.009292977
181	0xbb8ff767	-0.0043935063
182	0x3c47f3b3	0.0122040985
183	0xbbe27546	-0.0069109527
184	0xbbfeb5d7	-0.007773142
185	0xbc95dd0a	-0.018293876
186	0x3cb4c95b	0.02206867
187	0xbc5ac888	-0.013353474
188	0x3c663535	0.0140507715
189	0x3c8e3be7	0.017362548
190	0xbca54e1d	-0.020178849
191	0x3bd334c7	0.0064455005
192	0xbcbaaad4	-0.022786535
193	0x3cfe5ce2	0.03105015
194	0x3c29a1df	0.0103535345
195	0x3ba9c939	0.0051814583
196	0xba415b9d	-0.0007376017
197	0x3c5c4775	0.013444771
198	0xbbd09209	-0.006365065
199	0x3b9d9c1c	0.0048098695
200	0xbcddd779	-0.027080284
201	0xbc8e8c89	-0.017400997
202	0xbd4bfdb7	-0.04980251
203	0xbc15af7c	-0.009136077
204	0xbcbf81ba	-0.023377288
205	0xbc600e34	-0.013675261
206	0x3c9a4bec	0.01883503
207	0xbac0938d	-0.0014692411
208	0x3c1cf1c4	0.009579126
209	0xbccb6d8e	-0.024832513
210	0x3c2166e5	0.009851192
211	0xbca853de	-0.020547803
212	0x3c39fcd4	0.011351783
213	0xbc68837b	-0.014191504
214	0x3cb2c8d8	0.021824285
215	0xbcd0f5b7	-0.025507791
216	0xbc1994ad	-0.009373826
217	0x3ca154b8	0.019693717
218	0xbcedcd91	-0.029028686
219	0x3aefe54b	0.0018302588
220	0xbb98e6b6	-0.0046661748
221	0x3c45af4a	0.012065718
222	0xbd319550	-0.043355286
223	0x08453da8	5.9355008e-34
224	0xbd66f737	-0.056388106
225	0xbcddb45d	-0.027063543
226	0xbd30dda6	-0.04318013
227	0x3d0f5d43	0.03500105
228	0xbbfe5be0	-0.007762417
229	0xbbdf66de	-0.0068176826
230	0xbbd6bc58	-0.006553214
231	0xbb927f69	-0.004470755
232	0x3c95a884	0.018268831
233	0x3d0998db	0.03359304
234	0xbc700584	-0.0146497525
235	0xbc04f493	-0.008114952
236	0x3afce7fe	0.0019295213
237	0x3a83330e	0.0010009722
238	0x3c1fde8e	0.009757651
239	0xbcff946e	-0.031198706
240	0x3d021458	0.031757683
241	0xbc8c918f	-0.017159251
242	0xbc95e9eb	-0.018300017
243	0x3b932058	0.0044899397
244	0x3c85ddc7	0.016341103
245	0x3d0a97d2	0.033836193
246	0xbd158f39	-0.03651354
247	0x3bf178cd	0.007369137
248	0x3c2f69fd	0.010706422
249	0x3cf87eb5	0.030333856
250	0x3c639f7c	0.0138930045
251	0x3c33e9a6	0.010980999
252	0xbca5be2f	-0.020232288
253	0xbc4746e9	-0.012162902
254	0xbaf26fb3	-0.0018496424
255	0xbc582aca	-0.013193795
