slop_min40_openai_sentences.ipynb/topic_embeddings.safetensors (safetensors, 491608 bytes, 1 tensors)

topic_embeddings f4 [40, 3072]
0	0xbb3b0f9e	-0.0028543244
1	0xbc499973	-0.012304652
2	0xbcb3e6d6	-0.021960657
3	0xbc4b2b84	-0.012400512
4	0x3b22b996	0.0024829856
5	0x3b22ac95	0.0024822105
6	0xbc28592a	-0.010275165
7	0x3c168b9e	0.009188561
8	0xbb462654	-0.0030235248
9	0x3c6176e7	0.013761259
10	0x3c558cc0	0.013034046
11	0x3c2fee8c	0.010738026
12	0xbb9665eb	-0.0045897863
13	0xbc161f7f	-0.009162783
14	0xbc3b45b1	-0.01143019
15	0x3b82a99f	0.0039875056
16	0xbcb30145	-0.021851191
17	0x3adf0089	0.0017013709
18	0x3b4163e5	0.0029509005
19	0xbc5ac266	-0.013352012
20	0x3bebab3e	0.0071920445
21	0xbc40a40a	-0.01175786
22	0xbcfd6b52	-0.030934963
23	0x3b2e1653	0.00265636
24	0xb93037aa	-0.00016805404
25	0x3b0dc880	0.00216344
26	0xbbee2440	-0.007267505
27	0x3b53a754	0.003229578
28	0xbbec7ce2	-0.0072170356
29	0x3cc1e13e	0.023666974
30	0x3bd8f225	0.0066206628
31	0x3bbc389f	0.0057440544
32	0x3c18be24	0.009322677
33	0xbc31cc12	-0.010851877
34	0x3b66cae2	0.0035216142
35	0x3c2b2294	0.010445256
36	0x3c7b9fa5	0.015357886
37	0x3bc86074	0.0061150137
38	0x3c3061b3	0.010765481
39	0xba34e844	-0.00069010654
40	0x3c54a536	0.0129788425
41	0xbc004338	-0.007828526
42	0x391132a2	0.0001384714
43	0x3c0cd7fe	0.008596418
44	0xbc23b8eb	-0.009992818
45	0xbbcac6ef	-0.0061882655
46	0xba90d8dc	-0.0011050957
47	0xbc6371dc	-0.013882127
48	0xbac5e1bd	-0.0015097182
49	0xbbe2930b	-0.0069145015
50	0xbb0d56ad	-0.0021566555
51	0xbbb62d84	-0.005559625
52	0x3bc588f8	0.006028291
53	0xba1f25fd	-0.00060710293
54	0xbbd6ac7d	-0.006551324
55	0x3a706dd6	0.000917164
56	0x3c51be80	0.012801766
57	0xbd2ce049	-0.042206082
58	0x3bbf6eb3	0.005842054
59	0xbacf9403	-0.0015836958
60	0x3aa23968	0.0012376728
61	0xb9470cd4	-0.00018982898
62	0x3c2ea9d0	0.010660604
63	0x3b8c6029	0.004283924
64	0xbb6b3a4f	-0.003589291
65	0xbbe42064	-0.006961869
66	0xbb27e783	-0.002562017
67	0x3ab42b9d	0.0013745908
68	0x3b9127f4	0.0044298116
69	0x3c69ba60	0.014265627
70	0xbc7ee7a2	-0.015558155
71	0xbaea8abb	-0.0017894128
72	0x3c1be4dc	0.009515014
73	0x3c4e3e61	0.0125881145
74	0x3c19ba65	0.009382819
75	0x3b44a254	0.0030003982
76	0x3cb42a1c	0.021992736
77	0xb9835198	-0.0002504706
78	0xbc29170a	-0.010320434
79	0x3c34b221	0.011028797
80	0x3aaecd40	0.0013336316
81	0x3b4aef43	0.0030965365
82	0xbb59497d	-0.0033155375
83	0xbbda86a8	-0.0066688843
84	0x3ca825d7	0.020525856
85	0x3af9f62a	0.0019070555
86	0x3a42a4f1	0.0007425091
87	0xbd4c7860	-0.049919486
88	0x3b8a06d2	0.004212239
89	0x3b8180e6	0.0039521335
90	0xbbd0052d	-0.0063482733
91	0x3c368cbb	0.011141951
92	0x3b407a8f	0.0029369926
93	0xbcb8d533	-0.022562599
94	0x3bfbf15b	0.007688684
95	0x3c6968c4	0.0142461695
96	0xba73afa8	-0.0009295889
97	0x3c2d454e	0.010575606
98	0x3adbdedf	0.0016774795
99	0xb9ad8546	-0.00033096428
100	0x3bd67ec2	0.0065458724
101	0xbc28f6c2	-0.010312738
102	0x381af152	3.694121e-05
103	0xbc142a30	-0.009043261
104	0xb83140f2	-4.2260574e-05
105	0xbbb86fea	-0.0056285756
106	0xbc363573	-0.011121142
107	0x3c0f04d1	0.008729176
108	0x3afd3410	0.0019317884
109	0x3d87776d	0.066145755
110	0x3c4f0e65	0.012637709
111	0xbc1c3c3d	-0.009535846
112	0xbc97a93d	-0.018513316
113	0x3bda61ea	0.0066645043
114	0xbbfaffb3	-0.0076598763
115	0x3c9bfcf3	0.019041514
116	0xbc8f548c	-0.01749637
117	0xbc3caf2b	-0.011516373
118	0x3bcb787a	0.0062094303
119	0xbb999244	-0.0046866257
120	0xbbeda7c8	-0.007252667
121	0xbc52068e	-0.012818946
122	0x3c6e87be	0.014558731
123	0xb9567d8c	-0.000204554
124	0xbb4beb5c	-0.0031115627
125	0x3aed360b	0.0018097771
126	0xbc80bf82	-0.015716318
127	0xbb8ecca4	-0.004357891
128	0x3c5e1095	0.013553758
129	0xbc48129b	-0.012211467
130	0xbcd0ed33	-0.02550373
131	0x3c28ca1b	0.010302092
132	0x3b8dc1a4	0.0043260623
133	0x3c57203f	0.013130247
134	0x3c11bd5b	0.0088952435
135	0x3ba06f0d	0.004896051
136	0x3c41857d	0.011811611
137	0x3c0e428f	0.008682861
138	0x3c4a6cb0	0.012355015
139	0x3a35e3eb	0.00069385645
140	0xbc687ffe	-0.014190672
141	0x3b9ac0dd	0.004722698
142	0x3b2de75d	0.0026535608
143	0xbc03a483	-0.008034828
144	0xbccaff26	-0.024779867
145	0x3a9ef3e6	0.0012127131
146	0xbc88720d	-0.016655946
147	0x3c9b8449	0.018983977
148	0xbc6556b4	-0.013997722
149	0x3c02a84d	0.007974696
150	0xbc492e4d	-0.012279105
151	0x3aa996d1	0.0012938624
152	0xbbcd3044	-0.006261857
153	0x3c23dbda	0.010001147
154	0x3bdad896	0.006678651
155	0xbb8ea9e7	-0.00435375
156	0x3bc9dea4	0.006160574
157	0xbc4b95b6	-0.012425831
158	0xbc2983ff	-0.010346412
159	0x3c09d57b	0.008412714
160	0xbc6aa10c	-0.014320623
161	0xbc02aa30	-0.007975146
162	0xbba8bee1	-0.0051497077
163	0x3c451956	0.012029966
164	0x3c3a245d	0.011361209
165	0xbc840af0	-0.016118497
166	0x3ca81ecb	0.020522496
167	0xbafef76f	-0.0019452403
168	0xbc37b9cc	-0.011213731
169	0x3cb9f1ed	0.022698367
170	0x3b30da2f	0.0026985516
171	0x3af59427	0.001873617
172	0x3ab8f9d0	0.0014112536
173	0xbc6fcd38	-0.01463633
174	0x3a550456	0.0008125951
175	0x3c3a92d7	0.011387548
176	0x3c144dc7	0.009051747
177	0xba344ee6	-0.0006878212
178	0x392b79c7	0.00016353196
179	0x3c1954f6	0.009358635
180	0xbc326c6c	-0.010890108
181	0x3c589efb	0.013221498
182	0x3c189657	0.009313188
183	0xbc0331ef	-0.008007511
184	0x3b4c5f61	0.003118478
185	0x3cf39713	0.029735124
186	0x3ccc5eeb	0.024947604
187	0x3c086d75	0.008326878
188	0x3be7f920	0.0070792586
189	0xbc8070c8	-0.015678778
190	0x3c50ddea	0.012748221
191	0xbcab1eb0	-0.020888656
192	0x3c3059ed	0.0107636275
193	0xbc191b89	-0.009344944
194	0x3ba1c3ed	0.0049366863
195	0xbc24d7fb	-0.010061259
196	0xbc6b23e2	-0.014351817
197	0xbc8c0da3	-0.017096346
198	0xbc828d42	-0.015936498
199	0xbbd8a07b	-0.0066109276
200	0x3c193553	0.009351092
201	0xb8961d7d	-7.15805e-05
202	0x3b99f5b6	0.0046984805
203	0x3a44a9d3	0.00075021124
204	0x3bfcab4d	0.0077108503
205	0x3c1d65e7	0.009606815
206	0xb9b18e1c	-0.0003386595
207	0x3c0bf021	0.008541138
208	0xbb046b0e	-0.002020541
209	0x3b80f383	0.003935279
210	0x3c18cc67	0.009326077
211	0xbb4ece65	-0.0031556126
212	0xbb4ef63a	-0.0031579868
213	0x3a8f579f	0.0010936147
214	0xbbb01cfc	-0.005374549
215	0x39cca77f	0.00039034706
216	0xbba1bdc2	-0.004935951
217	0x3b89017b	0.0041810847
218	0x3b2287cc	0.002480018
219	0x3bc9580c	0.006144529
220	0x3be9252b	0.0071150265
221	0xbbc710ac	-0.0060749855
222	0xbb525a37	-0.003209723
223	0xbc8f5cb4	-0.017500259
224	0xbc0bbe68	-0.008529283
225	0xbc240e17	-0.010013125
226	0x3b0a591e	0.0021110247
227	0x3c3d47d3	0.011552769
228	0xbc39ff0c	-0.011352312
229	0x3c12e8dd	0.008966652
230	0xbc73eb3b	-0.014887626
231	0xbb4e94fb	-0.0031521905
232	0x3b8dac58	0.0043235235
233	0x3bed4e8c	0.0072420295
234	0xbb1061b3	-0.002203089
235	0xbc348c82	-0.011019828
236	0xbb4961d3	-0.0030728474
237	0x3a070703	0.0005150886
238	0xbbb81e82	-0.005618871
239	0xbb9b8568	-0.004746128
240	0xbbc15ff5	-0.0059013315
241	0x3c28aae9	0.010294654
242	0xbcc91866	-0.024547767
243	0xbc7afe54	-0.015319426
244	0x3c1eeeec	0.009700518
245	0xbc171081	-0.009220243
246	0x3bd07b91	0.0063623865
247	0xbc98ce1e	-0.018652972
248	0xbc8a54a6	-0.016886067
249	0x3af63376	0.0018783647
250	0x3850b341	4.9758008e-05
251	0xbc29bc90	-0.010359898
252	0x392167ba	0.00015392798
253	0x3c46a261	0.012123675
254	0xbaf4fcd7	-0.0018691075
255	0x3cb5f8ab	0.0222133
