slop_min40_openai_sentences.ipynb/topic_embeddings.safetensors (safetensors, 122968 bytes, 1 tensors)

topic_embeddings f4 [10, 3072]
00000000: bd7d 5bbc 0d65 46bc a468 acbc 30d2 053b
00000010: ea4a 9d3a 6718 8cbb 88ca 4dbc 095f e13c
00000020: 3737 833b b52a 9d3c 221a 393c 611b 003a
00000030: aa3c 84bb e944 a8bb fb33 6fbc b2a3 f03a
00000040: 1e7a aabc db6b b7ba 0af0 1abc faea aabc
00000050: fd06 30ba fdb9 44bc 0e18 5fbc 554a c9ba
00000060: add5 f33b 76fc 7b3b ef2f b53b b6cf 1e3c
00000070: 1966 22bb 90b6 863c 62a4 b13c ce24 f23b
00000080: ba58 433c 6b04 ca3b 1bd0 b7bb a1bb c63b
00000090: dc0e 813c 4046 3d3c 28b0 473c 9fc4 90bb
000000a0: 82dd 9b3b 8294 36bc 7254 0ebb add7 923c
000000b0: e9b8 d0ba a51d 38bc 3a3f 7c3b e824 06bc
000000c0: a297 7cba 938d 39bc 981a e5bb dd1e 223b
000000d0: f1f4 193b fbbd 7eba b0c4 e83b 2380 13bc
000000e0: 52a0 833a fdf7 b5bc 9ee3 cc3b 0dd1 88ba
000000f0: 5870 bfbb f18f 47bc 3689 0c3c 547f ab3b
00000100: 449f a2bb 8155 97bb 99b7 223b d31d 0c3c
00000110: df6b 13bc 45c3 563c 1a5c a0bb 8c77 e9ba
00000120: 78c8 76b9 ea64 5c3c 5612 3c3c 4838 0d3a
00000130: bc48 8e3c 661d a33b d404 26bc fd50 8a3b
00000140: 2607 09bb 7899 27bb b9e5 b5bb 84b3 213b
00000150: 1862 5f3b 3e32 0e3b e569 6d3b 75fc 80bd
00000160: e6f7 3eb9 782b f539 716d 253c 5f97 023c
00000170: 8ce3 f8ba 3ca9 babc a901 243c e21c c93b
00000180: 294e ec3b 1293 503b 8547 8abc 5829 05bb
00000190: c049 9eba 027e 3fbc 5f3c 073c db8d 9fbc
000001a0: 6f6b 383a 319a 7636 3419 9dbb d780 183c
000001b0: 2a46 b73b 7d67 8c3c 4fc3 b93c 08e9 afbb
000001c0: aeb7 8ebc 4dc7 d03b 6bff 55bc 5e02 643c
000001d0: 1003 87bc 220d 263b 6ab6 c9bb 1e22 1739
000001e0: 7433 0bba 3086 30bc 5c59 e03b ddfb 293b
000001f0: 0d4e 07ba e82b 35bb 7ed4 99bb 7cba 843b
00000200: a6e1 143c 77e2 21ba 500f a4bc 1b55 7f3c
00000210: f9b1 81bc 18e5 043c 4cb5 1d3c c977 3b3b
00000220: dd90 333b 13ed 203b dc70 833c 0f6a 773c
00000230: b75e e8bb a46a 34bb 830e 043c ab9b 2ebc
00000240: d208 c4bc 8a5a 36bb d8cb 6fbb 7281 d33b
00000250: e00e 113c ce9a 663b 646a 91bb b20d c3bb
00000260: 804d 34bc eb4f 33bb 67ca 123c e81e c239
00000270: 2861 023b 78b5 44bc 9f49 33bc bfea 443c
00000280: 0517 56bc 3ece 56bb 5a82 43ba bee4 bf3b
00000290: 02ac 1db8 1327 69bc 75e8 b03c 67ae be3b
000002a0: 4048 83bb b422 ad3c 7229 3a3b e478 7bbc
000002b0: b02c 4a38 077f 25bc 55c1 c8bb 7a54 a63b
000002c0: ca82 ad3c 4149 813a be0e fcbb 0a6b 7f3b
000002d0: 5e45 4abc 1d15 353c b77e 533c 2aa2 b1bb
000002e0: d5e6 073b 1d37 963c 4e20 013d b1fd a33b
000002f0: 5f48 bf3b a53f 8fbc a807 813c 80a8 9bbc
00000300: 90e6 433c 756b 1dbc 0e8f eaba 1c21 cdbb
00000310: fff7 c23b 7bf8 84bb 22b0 c4bc 41f4 9fbb
00000320: e23f 5e3b 88fa 7ebb 353f 403b d7ec 083c
00000330: d907 d43b 04f7 0e3c cd5a 353b 8dc3 213c
00000340: 2096 303c c3a2 32b9 ea18 ca3b e4d3 d43a
00000350: c5e7 92b9 6104 343b 3d0b f03b 388b 1d3c
00000360: dad2 6fbb 448e 323b 2e1f 6b3b 7d16 7ebb
00000370: 4361 4eb9 8ae4 14bc 07d2 523b f591 feba
00000380: dcc0 a43a f77e 9b3b d18d 363b 66c1 a63c
00000390: cb52 21bc f345 153b 78c7 bbbb 0a8b 8fbb
000003a0: 4355 b3bb cde1 3c3b b251 4fbb a07c 1b39
000003b0: a234 8ebb 96ff 0e3b 8667 1ebb 5eb9 c6bb
000003c0: de60 643b 5ed3 32bb 1471 a4bc 9273 83bc
000003d0: 0906 e63b d10d 19bc 4e48 503c 5e3b 293c
000003e0: 14b7 a0bb ff0b 2a3c 204b 613a fd88 28bc
000003f0: aa22 9bba a79b 9f3c db31 88ba cf7d 5d3c
-0.013396678 -0.012109053 -0.02104599 0.002041947 0.0012000476 -0.00427537 -0.012560494 0.027511137
0.004004385 0.019185403 0.011297734 0.0004886892 -0.004035552 -0.005135168 -0.014599795 0.0018359332
-0.020810183 -0.0013993935 -0.009456644 -0.020863999 -0.00067149085 -0.012007234 -0.013616575 -0.0015357236
0.0074412436 0.003845004 0.005529396 0.009693077 -0.0024780093 0.016444474 0.02168483 0.0073896414
0.0119230095 0.0061650774 -0.005609525 0.0060648476 0.015754156 0.011552393 0.012187995 -0.0044179703
0.0047566304 -0.011143805 -0.0021717814 0.017925108 -0.0015924248 -0.011237537 0.0038489834 -0.00818751
-0.0009635632 -0.011325258 -0.0069916956 0.0024737634 0.0023491944 -0.00097176404 0.007103525 -0.009002718
0.0010042286 -0.022212977 0.00625272 -0.0010438279 -0.00584225 -0.012180314 0.0085776355 0.0052336846
-0.0049628336 -0.004618347 0.002482867 0.0085520325 -0.008997886 0.013108079 -0.004893792 -0.0017812117
-0.00023535069 0.013451794 0.011478981 0.00053871097 0.017368667 0.00497787 -0.010132987 0.0042210803
-0.0020908802 -0.0025573652 -0.0055510667 0.002467365 0.0034085568 0.0021697427 0.0036226448 -0.06298152
-0.00018212161 0.00046762428 0.010096894 0.00797066 -0.0018988713 -0.022785775 0.010010161 0.0061374763
0.007211466 0.0031825942 -0.016879806 -0.0020318832 -0.0012076423 -0.011687757 0.00825414 -0.019476822
0.0007035052 3.6746608e-06 -0.004794264 0.009308062 0.005593081 0.01713919 0.022676138 -0.0053683557
-0.01742157 0.0063714148 -0.013061385 0.01391658 -0.016480953 0.0025337418 -0.0061557787 0.00014413192
-0.00053100963 -0.01077418 0.00684659 0.0025937476 -0.0005161472 -0.0027644578 -0.0046945205 0.004050551
0.009087002 -0.00061754085 -0.020026833 0.015584256 -0.015831934 0.008111261 0.009625744 0.0028605333
0.0027399578 0.002455537 0.016045026 0.01510097 -0.007091369 -0.0027529383 0.0080601005 -0.010657231
-0.023929987 -0.0027824962 -0.0036590006 0.00645464 0.008853644 0.0035187486 -0.0044377316 -0.0059525603
-0.011004806 -0.0027360867 0.008959389 0.0003702559 0.0019894335 -0.012006156 -0.010942846 0.012018858
-0.013067012 -0.0032776739 -0.00074580836 0.0058561256 -3.759191e-05 -0.014230507 0.02159522 0.00581913
-0.0040064156 0.021134712 0.002840605 -0.015348647 4.820217e-05 -0.010101086 -0.0061265626 0.0050759884
0.02118053 0.000986375 -0.007692187 0.0038973712 -0.01234564 0.011052397 0.012908629 -0.005420943
0.0020736952 0.018336827 0.03152495 0.0050046076 0.0058374847 -0.017486403 0.015750721 -0.019001245
0.011956826 -0.009608139 -0.0017895417 -0.0062600505 0.0059499736 -0.0040579415 -0.024009768 -0.0048814123
0.003391259 -0.0038906652 0.002933455 0.008357248 0.006470662 0.008725885 0.002767253 0.009873283
0.01077798 -0.00017036036 0.006167521 0.0016237465 -0.00028019972 0.002746843 0.0073255585 0.009615712
-0.0036594183 0.0027245441 0.003587674 -0.0038770728 -0.00019681924 -0.009087691 0.0032168643 -0.0019422161
0.0012569684 0.00474536 0.0027855525 0.020355891 -0.0098464 0.0022777289 -0.0057305656 -0.0043805884
-0.0054728105 0.0028821111 -0.0031634388 0.00014828378 -0.0043397704 0.0021819822 -0.0024170591 -0.006064578
0.0034847776 -0.002728663 -0.020073451 -0.01604632 0.0070197624 -0.009341673 0.012712551 0.010329096
-0.004904637 0.010378837 0.00085942633 -0.010286567 -0.0011835892 0.0194834 -0.0010390835 0.013518765
