slop_bert_model/topic_embeddings.safetensors (safetensors, 66136 bytes, 1 tensors)

topic_embeddings f4 [43, 384]
000000 73 dc a4 bc 8f 1f 9d bb bc 8e 21 3c 86 93 ad 3b
       -0.02012465 -0.004795022 0.009860691 0.005297127
000010 fe 63 f0 3c f4 e4 05 bc d9 9f 8e 3c 8f d9 85 bc
       0.029344555 -0.008172262 0.017410206 -0.016339092
000020 2c 61 65 3c 5a ca 86 bc 5d c1 ad 3b 93 58 e2 3c
       0.014000218 -0.01645391 0.0053025917 0.027630126
000030 32 06 82 3c c6 51 12 bc 58 61 ff bb a4 68 ea bb
       0.015872095 -0.008930629 -0.0077935867 -0.0071535874
000040 76 b9 2e 3c de e1 e7 bc 48 fa dc bc 6e 58 61 bc
       0.0106643345 -0.028305944 -0.026974812 -0.013753993
000050 00 ff 62 ba 18 9f 7a 3a e1 f0 9e 3c 46 a0 29 3b
       -0.0008659214 0.000956045 0.01940197 0.0025882884
000060 8f bd f6 3b 34 e4 b8 3b 85 9b 87 bc f2 d3 61 bc
       0.0075299214 0.0056424383 -0.01655365 -0.013783442
000070 24 a3 2f 3c 0e e0 55 bc 60 43 6d 3b 35 55 08 3d
       0.010720048 -0.013053907 0.0036203489 0.033284385
000080 ca 30 66 3c 54 9e 3d 3c 77 14 21 bb 0d 4a ae 3c
       0.014049718 0.011573393 -0.0024578848 0.021275545
000090 26 74 43 ba b7 d9 38 3c 6d b5 7e 3c 85 ee 35 bc
       -0.0007455967 0.011282376 0.015546185 -0.011104231
0000a0 64 dd f4 3b 3f 9b 30 bd f0 a0 54 bb 3c 47 81 3a
       0.007472681 -0.043116804 -0.003244456 0.0009863148
0000b0 00 aa 3f 3b 91 47 d6 3a 6a bd 92 bc 72 e8 58 bc
       0.0029245615 0.0016348233 -0.017912585 -0.013239013
0000c0 bc 17 bc ba 2f 6b 53 3b a8 f7 35 bd a3 99 fe bc
       -0.0014350335 0.0032259931 -0.044425637 -0.03107912
0000d0 59 ef 62 3b f7 93 04 bd 22 70 85 3b c9 c4 8c bc
       0.0034627526 -0.032367673 0.004072205 -0.017183678
0000e0 4f 36 1f bc 93 98 f9 3b 77 73 9d 3c 97 d3 7f 3b
       -0.009717538 0.007617065 0.019220097 0.003903603
0000f0 84 9b 21 3c 44 b1 81 bc 6a 30 c8 bb a3 03 12 3d
       0.009863738 -0.015831597 -0.006109287 0.035648
000100 d7 d0 2a 3d 5f 80 0c 3c 4a ab 24 bc aa 10 40 3c
       0.04170307 0.008575528 -0.010050604 0.011722723
000110 e2 f6 e5 bc 46 31 7d bb 58 7d 3d 3c 05 e3 3e 3b
       -0.028071824 -0.0038634106 0.011565529 0.0029127013
000120 13 da 12 bb 26 72 0c 3d d2 4c 87 3b ab 3f f3 bb
       -0.0022407814 0.034288548 0.0041290307 -0.0074233613
000130 2e 28 81 3c 14 24 42 bc 6a f1 9c 3c ef 35 95 bc
       0.01576623 -0.011849422 0.019158084 -0.018214194
000140 be f9 af 3c ea 46 a4 bc 3d 85 d9 3b 5e 30 28 3c
       0.021481391 -0.020053346 0.0066381977 0.010265438
000150 d8 79 96 3a 2c 26 1e bb 37 09 bf 3b 02 22 bd bc
       0.0011480404 -0.002413164 0.005829956 -0.023087505
000160 5c 04 24 3c d0 da 3a 3c 2f 43 0d bd da d5 c2 bc
       0.010010805 0.011404708 -0.0344879 -0.023783613
000170 fb eb f3 3c f2 68 17 3c 91 dc 19 bc af 77 24 bb
       0.02977561 0.0092413295 -0.009390966 -0.002509575
000180 ed f0 d8 bc f6 84 73 bc 37 1a d2 bc 11 b3 4f 3d
       -0.02648207 -0.014863243 -0.025647266 0.05070788
000190 5d 8b 8f bc bf 95 a9 3c 69 b8 fa 3b 7c ac b8 bc
       -0.017522508 0.020701287 0.007651378 -0.022543184
0001a0 93 af 39 3b 3d e4 e2 bc 89 86 92 ba 08 83 ed 3b
       0.002833341 -0.027696723 -0.0011179011 0.007248286
0001b0 c3 a4 a1 3a c4 62 b4 3b f2 cf 17 bd ba 66 a8 3b
       0.0012332428 0.005504938 -0.037063546 0.005139199
0001c0 a1 2c c8 3b 3e 69 9e bc 56 d4 08 3d 0c 0b 0d bc
       0.006108836 -0.019337293 0.033405624 -0.008608591
0001d0 7b 9d 84 3b 99 85 8c 3c 42 dd d9 3b 0f 39 dd 3a
       0.0040470934 0.017153548 0.0066486904 0.0016877967
0001e0 82 db 89 3c ec c6 b3 3c f6 27 b1 bc f1 80 a3 3c
       0.016828302 0.02194544 -0.0216255 0.019958945
0001f0 ae a9 94 ba ef 5d 0c bd 1e b2 07 bd 60 6f 4d 89
       -0.0011342072 -0.03426927 -0.03312885 -2.4728346e-33
000200 7c ae 86 3c b1 51 92 3c 74 3e f4 3c 15 18 d2 3c
       0.016440623 0.01786122 0.029814936 0.025646249
000210 a5 81 c1 3c 26 fd 1f 3b 13 44 fa bc 67 3c 75 bb
       0.02362139 0.0024412363 -0.030550038 -0.0037420036
000220 4f 67 b5 bb 98 cf 0a 3b d4 8d 01 bb 08 e9 81 3c
       -0.005535997 0.0021180864 -0.0019768374 0.015858188
000230 f0 d2 6f bc 15 dd 00 3d 68 67 85 3c db 8c a0 bb
       -0.014637694 0.03146084 0.01628466 -0.004899604
000240 fa fc be bc 2b dd d7 3c 2a 63 02 3c 7e ab 83 bc
       -0.023313988 0.026350578 0.007958213 -0.016072985
000250 61 f1 94 3c 61 97 31 bc 66 7f f4 3a 35 5f 0f bc
       0.018181505 -0.010839314 0.001865369 -0.0087507265
000260 22 c3 a8 bb a6 09 7c 3c 8f a4 3d 3c 7f cb 6b bc
       -0.005150215 0.01538316 0.011574878 -0.014391779
000270 99 e3 2e 3d 3c ea 6e 3c 2d 8d 19 bd fd b1 9a 3c
       0.042697523 0.014582213 -0.03748815 0.0188837
000280 b6 c3 03 bc 82 ea 84 bc ff c2 4c 3c de 0e 99 3c
       -0.008042267 -0.016225103 0.012497663 0.018683847
000290 ae c5 d6 bb 7e d4 25 bd d8 24 84 3a 69 5a bf 3c
       -0.006554327 -0.04048585 0.0010081781 0.02335854
0002a0 c4 62 95 bc 08 0d b9 3c da 6d c9 bc 8a 0a 89 bb
       -0.018235572 0.022589222 -0.024588514 -0.0041821646
0002b0 e6 e4 93 bc 31 eb 39 3d 92 73 c0 3c 02 2c 7a bc
       -0.018053483 0.04539031 0.023492608 -0.015269281
0002c0 37 e3 b4 bb b7 4e 97 3c 98 4b 93 39 3d 3b d7 3c
       -0.00552025 0.018470151 0.00028094347 0.026273364
0002d0 4b f3 e4 3b 8e 52 c4 bb 2a 06 49 3c 1f d1 8b bb
       0.0069870106 -0.0059912866 0.012269536 -0.0042668725
0002e0 88 62 1a bc 25 22 b3 bc 72 57 ce 3c 1f 57 85 bc
       -0.009422906 -0.021866867 0.025188182 -0.016276894
0002f0 f5 47 83 3c 05 f3 9a 3c 6c 6f a4 bc 0b ef 1d 3c
       0.016025523 0.018914709 -0.020072661 0.009639512
000300 21 b5 b9 bc 04 cc cf 3c dc 80 17 3c 87 24 0f 3b
       -0.022669377 0.025365837 0.009247031 0.002184184
000310 c1 ae 5f 3a 29 65 63 3c 87 24 c6 bb 59 57 85 3b
       0.0008532815 0.013879099 -0.006046835 0.0040692505
000320 b2 17 d9 bc 55 08 9e bc 40 9d 4c bd 97 24 31 bc
       -0.026500557 -0.019291082 -0.049954653 -0.010811946
000330 08 1e b2 bc a4 70 59 bc e3 e0 77 3c b9 c2 d2 3b
       -0.021742836 -0.0132714845 0.015129301 0.006431904
000340 56 d1 36 3c 7b 62 cf bc bb 8c 46 3c e8 d3 b4 bc
       0.011158308 -0.025315514 0.012118514 -0.022073701
000350 df 7f df 3b f9 36 47 bc d4 3d a6 3c 3c 29 e8 bc
       0.0068206633 -0.012159103 0.020293154 -0.028339975
000360 9a 28 10 bc 70 f2 85 3c 2e 10 ce bc 5d 44 06 3b
       -0.008798743 0.016350955 -0.0251542 0.0020487525
000370 02 08 73 bb 71 62 02 3c 3c 7b 2e bd 0a 37 2e 08
       -0.003708363 0.007958041 -0.042597994 5.242592e-34
000380 76 ff 63 bd 39 c7 b5 bc 0f 4c 1c bd 6f 1a 13 3d
       -0.05566355 -0.022189723 -0.038158473 0.03591388
000390 1b 1f be bb e2 7e 02 bc fd c4 ea bb c5 2f cb 3b
       -0.005802048 -0.0079648215 -0.007164596 0.006200763
0003a0 02 81 b4 3c 6a 97 fc 3c 22 01 80 bc ba c0 23 bc
       0.022034172 0.030833919 -0.01562554 -0.00999468
0003b0 f0 1e 3a 37 e7 03 3c bb fd 8b c8 3b 44 ed 11 bd
       1.1093667e-05 -0.002868885 0.0061202035 -0.035626665
0003c0 8c 2a 1f 3d e9 15 99 bc 80 6c be bc 9b a9 8a b9
       0.038858935 -0.018687205 -0.023245096 -0.00026447777
0003d0 bb 32 2c 3c c1 16 0c 3d ef 16 17 bd 5a 21 b6 3b
       0.010510142 0.034201387 -0.036887106 0.005558175
0003e0 09 7f 23 3c f3 44 05 3d 25 1d 97 3c 88 98 40 3c
       0.009979018 0.03253646 0.018446514 0.011755116
0003f0 86 16 af bc fe 02 fe bb 16 b3 ac 3a de 89 73 bc
       -0.021373045 -0.0077518215 0.001317593 -0.014864413
