subset/topic_embeddings.safetensors (safetensors, 147544 bytes, 1 tensors)

topic_embeddings f4 [12, 3072]
0	0xbade4e74	-0.0016960637
1	0xbc811da1	-0.015761198
2	0xbcb5ad4e	-0.022177365
3	0xbc6ea787	-0.014566309
4	0x3b8337f0	0.004004471
5	0x3994c2ff	0.00028374043
6	0xbbcafcaa	-0.0061946707
7	0x3c1880b3	0.009308028
8	0xbb9a5c3d	-0.0047107027
9	0x3c9d3650	0.019190937
10	0x3c26c29b	0.0101782335
11	0x3c2626db	0.0101411
12	0xbb96f41f	-0.004606738
13	0xbc796458	-0.015221678
14	0xbbe6df9d	-0.0070456997
15	0xb958b287	-0.00020665872
16	0xbcaf4a82	-0.021397833
17	0x3b43180e	0.0029768976
18	0x3b9d7107	0.0048047337
19	0xbc438ea1	-0.011935861
20	0x3b493558	0.0030701961
21	0xbc5f4eb9	-0.013629609
22	0xbd127360	-0.03575456
23	0xb91e599a	-0.00015101433
24	0x3886c599	6.426423e-05
25	0x39a3dd64	0.00031254732
26	0xbbd1b823	-0.0064001246
27	0xbad352dc	-0.0016122716
28	0xbc085695	-0.008321424
29	0x3cb8ac34	0.02254305
30	0x3c0c040f	0.0085458895
31	0x3bc758ae	0.0060835695
32	0x3c36467e	0.011125205
33	0xbc6b2f07	-0.014354474
34	0x3bc8c2d8	0.006126743
35	0x3b963e90	0.0045850947
36	0x3c802edd	0.015647346
37	0x3c036923	0.008020672
38	0x3c12530f	0.0089309355
39	0xbb9acd5a	-0.004724187
40	0x3c9afe8e	0.01892021
41	0xbb9340dd	-0.0044938163
42	0x3a90c84d	0.0011046022
43	0x3bb8f153	0.0056440025
44	0xbc15a520	-0.009133607
45	0xbc2154f1	-0.009846912
46	0xba30e0fc	-0.00067473925
47	0xbc8f7d3c	-0.017515771
48	0x39450c51	0.00018791972
49	0xbc2b40c9	-0.010452458
50	0xba6ee069	-0.0009112419
51	0xbba96f79	-0.0051707593
52	0x3b93ab1d	0.0045064823
53	0x398d4fb2	0.00026952993
54	0xbbc5b568	-0.006033588
55	0x3ac535ef	0.0015045981
56	0x3c858c6a	0.016302306
57	0xbd280e88	-0.041029483
58	0x3bdd22de	0.0067485413
59	0xbb2a1cf8	-0.0025957208
60	0x3bf01577	0.0073267776
61	0x3a6299fb	0.00086441607
62	0x3c433d7d	0.011916515
63	0x3b89edf4	0.0042092744
64	0xbbebc8c0	-0.007195562
65	0xbc2bd244	-0.010487143
66	0xbbcd97f0	-0.006274216
67	0x3b36df6c	0.0027904166
68	0x3b30bf0a	0.0026969337
69	0x3c8b0c5b	0.016973665
70	0xbc371d1f	-0.011176377
71	0x3ad7dd45	0.0016469142
72	0x3c5c8a7a	0.01346075
73	0x3bb0c570	0.00539463
74	0x3be1fd7f	0.006896674
75	0x3c1379cd	0.009001208
76	0x3cc12d07	0.023581041
77	0xbb5daeaf	-0.0033826043
78	0xbc567281	-0.013088823
79	0x3c72b569	0.014813759
80	0xb856a3c7	-5.1174105e-05
81	0x3b98d2c5	0.0046637976
82	0xb999ead3	-0.00029357392
83	0xbba17de2	-0.0049283365
84	0x3cbc8d21	0.023016514
85	0x3a113cf2	0.00055403926
86	0x3a149dab	0.00056692463
87	0xbd444f90	-0.04792744
88	0x398135d8	0.00024644914
89	0x3b539080	0.0032282174
90	0xbc375faa	-0.011192242
91	0x3c5423ff	0.012948035
92	0x39fb3fa2	0.0004792186
93	0xbca864ba	-0.020555843
94	0x3c0aea8f	0.008478775
95	0x3c8d1ecd	0.017226601
96	0x3b8e8c6e	0.0043502366
97	0x3c377689	0.011197695
98	0x3a9ce9bd	0.0011971515
99	0x3ae7b67b	0.0017678285
100	0x3bd3912c	0.006456515
101	0xbc1c6ee1	-0.00954792
102	0xb988a802	-0.00026065117
103	0xbc209594	-0.009801287
104	0x3a858e91	0.0010189583
105	0xbbb6ad33	-0.005574846
106	0xbc05b76f	-0.00816141
107	0x3be6e58b	0.0070464066
108	0x3a2ab060	0.0006511267
109	0x3d7cf977	0.061761346
110	0x3c2aef19	0.010432982
111	0xbc3cdee3	-0.01152775
112	0xbcab1965	-0.020886132
113	0x3c23055d	0.009950009
114	0xbb709748	-0.0036711264
115	0x3caf340f	0.021387128
116	0xbca664b0	-0.020311683
117	0xbc3a99a8	-0.011389174
118	0x3c1bd270	0.009510621
119	0xbbf23324	-0.0073913503
120	0xbbd27a19	-0.0064232466
121	0xbc122b2b	-0.008921425
122	0x3c6b159e	0.014348416
123	0xb8796265	-5.9457863e-05
124	0xbc258261	-0.010101886
125	0x3b2d99bb	0.0026489336
126	0xbca654b1	-0.020304056
127	0xbbbb5703	-0.0057171597
128	0x3c84a9f9	0.01619433
129	0xbc77efa1	-0.015132816
130	0xbccb53de	-0.024820264
131	0x3c1b841c	0.009491947
132	0x3bbf3d01	0.0058361297
133	0x3c5318be	0.012884317
134	0x3c07c3a6	0.008286392
135	0x3c3f8fd7	0.011692009
136	0x3c842a8f	0.016133575
137	0x3c35aca3	0.011088523
138	0x3c8c98cf	0.017162709
139	0xba9b8e1d	-0.0011867915
140	0xbc8c4f94	-0.01712779
141	0x3bfebc68	0.0077739246
142	0x3ba716cf	0.0050991545
143	0xbbc11bc9	-0.005893205
144	0xbcdf2e36	-0.027243715
145	0xb8fff011	-0.000122040634
146	0xbc5dce8b	-0.013538013
147	0x3ca2dc17	0.019880338
148	0xbc19be75	-0.009383787
149	0x3bef7f78	0.0073088966
150	0xbc43f9dc	-0.011961427
151	0xba728922	-0.0009252002
152	0xbbdad41d	-0.006678118
153	0x3c2dc8df	0.010606973
154	0x3b7c745c	0.0038521504
155	0xbbf8eb04	-0.0075963754
156	0x3c199586	0.009374028
157	0xbc064d73	-0.008197176
158	0xbc4fc569	-0.012681344
159	0x3c0819e6	0.008306956
160	0xbc833266	-0.016015243
161	0xbbf8d3a9	-0.007593591
162	0xbabbdeee	-0.0014333406
163	0x3c28609a	0.010276938
164	0x3c33cf83	0.010974768
165	0xbc92caf4	-0.017919041
166	0x3cd46944	0.0259291
167	0xbb321370	-0.002717223
168	0xbc4ec4aa	-0.012620131
169	0x3cbdc717	0.023166222
170	0x3bea1a58	0.0071442537
171	0x3b9f2e1c	0.0048577916
172	0x3a386f7e	0.00070356566
173	0xbc8efc0a	-0.017454166
174	0xbadf28b2	-0.0017025678
175	0x3c7c8f65	0.015415047
176	0x3c14ae8b	0.009074817
177	0xbb9e3b83	-0.0048288717
178	0xbabd7037	-0.0014452998
179	0x3c083b63	0.00831494
180	0xbc5438bc	-0.01295298
181	0x3c733189	0.014843353
182	0x3bdc1b76	0.006717141
183	0xbbd7e841	-0.006588966
184	0x3ac7591b	0.0015209051
185	0x3d0ec0c6	0.03485181
186	0x3cf57a07	0.029965414
187	0x3c5efc2e	0.013609929
188	0x39dea226	0.0004246395
189	0xbc70641a	-0.014672304
190	0x3c4a3726	0.01234225
191	0xbcb6f94f	-0.022335676
192	0x3c329893	0.010900634
193	0xbc0fcd12	-0.00877692
194	0x3b472468	0.003038669
195	0xbc442e80	-0.011973977
196	0xbca09a91	-0.019604953
197	0xbc985f6e	-0.018600192
198	0xbc7dd890	-0.015493527
199	0xbc1c5898	-0.009542607
200	0x3bfc9e02	0.0077092657
201	0xb9275cab	-0.00015960883
202	0x3b1955cc	0.0023397086
203	0xbb0fb41c	-0.0021927422
204	0x3bcf5a3b	0.006327895
205	0x3c438171	0.011932717
206	0xba188ea3	-0.00058195944
207	0x3c28e28f	0.010307922
208	0xbbacdc3e	-0.0052752784
209	0x3bdfbc15	0.006827841
210	0x3be586a9	0.007004578
211	0xbb9f878a	-0.0048684524
212	0xbabef7ca	-0.0014569697
213	0xbb8e30bb	-0.004339305
214	0xbb838082	-0.004013122
215	0xba782a1e	-0.0009466725
216	0xbaf2bae8	-0.0018518837
217	0xba43ab56	-0.0007464191
218	0x3baa287a	0.0051928135
219	0x3beddd4c	0.0072590467
220	0x3b9e1961	0.0048248027
221	0xbbd1eeb2	-0.0064066285
222	0xbbfe05a3	-0.007752137
223	0xbc9494b9	-0.018137323
224	0xbc4c6458	-0.012475096
225	0xbc7eb58b	-0.015546213
226	0x3b239982	0.0024963324
227	0x3c64a00d	0.013954175
228	0xbc4d1da8	-0.012519278
229	0x3c4e3cc9	0.0125877345
230	0xbc3fd0aa	-0.011707464
231	0xbbefba83	-0.007315935
232	0x3bdfc353	0.0068287044
233	0x3c28f292	0.0103117395
234	0xbb680b75	-0.003540722
235	0xbc69778c	-0.014249694
236	0xb92abbf6	-0.00016282484
237	0x39b58fc4	0.00034630124
238	0xbba833b9	-0.005133119
239	0x3a04935c	0.00050573586
240	0xbc27af00	-0.010234594
241	0x3ba6342b	0.005072137
242	0xbcb58c2e	-0.02216157
243	0xbc242281	-0.010017992
244	0x3c494aad	0.0122858705
245	0xbc0f991b	-0.0087645305
246	0x3b335544	0.0027364055
247	0xbcd0a633	-0.025469875
248	0xbc970345	-0.018434176
249	0x39b38c54	0.00034246093
250	0x3bf47e5f	0.0074613537
251	0xbc3052cf	-0.010761931
252	0x3b3b37e8	0.0028567258
253	0x3c558bdf	0.013033836
254	0xbbb4b385	-0.0055145645
255	0x3c9fb5f6	0.019495945
