slop_min15_df1_openai_sentences.ipynb/topic_embeddings.safetensors (safetensors, 233560 bytes, 1 tensors)

topic_embeddings f4 [19, 3072]
00000000: e034 c23a 0942 2bbc 0f9f b3bc 2bf0 00bc
00000010: 4092 f0b9 8e51 7dbb f29d 35bc 8350 5e3c
00000020: 1dba 0fb9 c58e ae3c cb83 9c3b 04ba ab3b
00000030: c777 47bc dc40 cbba 9e88 f4bb 337c 163b
00000040: d2a3 cebc ae76 e43a 3036 a4bb 9b78 8fbc
00000050: 6d73 243b 2e82 82bc 5f4e 81bc 49ed 91b9
00000060: a9b5 ef3b d230 373b 5c8e 33bb 2745 9a3b
00000070: bcca 81bb 7359 753c d05c fb3b cd24 623b
00000080: 73e6 963b 831e afbb cd8d a4bb 4a81 263c
00000090: 18e7 2a3c e331 e83a 99bd 573c 784e a63a
000000a0: 1414 f33b 4006 16bc 8df7 9d3a 7128 e83b
000000b0: 2ef6 39bc e97a b1bb 7249 caba 12b6 12bc
000000c0: 8db6 cbbb 06ae 5bbb ac34 9f3a 5583 4bba
000000d0: 2b73 3b3c b75d 853b d26d b13a a608 98bb
000000e0: b740 933b 7cb4 11bd ff64 293c c293 02bc
000000f0: 0226 5739 16fb 08bc ce19 103c e53f a93b
00000100: 3928 163b eb0f 8fbb c503 edb8 03d3 6e3a
00000110: b2a0 ddba e4e4 7d3c 3a65 0abc 13af 89bb
00000120: 71c6 42bb 7b40 9c3c 0074 263c 48bc 25bb
00000130: f4ea bb3c 5497 da3b 6911 9ebb 2dd6 ad3b
00000140: 15e1 aa3b be27 4fbb e48f 34bc 53f3 6dba
00000150: 62b4 0d3c f2a5 623b 6360 92bb 9ad7 6abd
00000160: 3967 2dbb b598 9c3b 9004 863b fabc c43b
00000170: e8fa 25ba 7561 bebc fa72 bf3a 171e 133c
00000180: d334 09bb 64ce ff3a 11a9 23bb 2bbd 29bb
00000190: 12dd 213c 2718 0bbc 788a 3b3b 9b84 3abc
000001a0: ebc6 b83a c60a 6837 bc87 1dbc f15a 483c
000001b0: ad82 2dbb 1dca 433d 1ee4 1d3c 07b3 d0b9
000001c0: 8195 aabc 5093 1e3b ea77 d3bb 94e5 8c3c
000001d0: 4bfb 54bc a3fb 24bb 4965 52bb b9f2 2cbc
000001e0: 4877 4eb9 6b38 6abc 345a 343c 0e33 d13a
000001f0: 85f3 0a3c 4e11 1a3b 201b 0fbc 7e5c ae3b
00000200: 4188 353c ebe3 9ebb b8bd a6bc 0099 2f3c
00000210: acc4 7ebb a07b 483c b333 1a3c e695 b73a
00000220: 434f 063c 44cd 9bba 827f 203c 855b 033c
00000230: 9e72 80bc 4158 f03a dec3 5a3b e671 58bb
00000240: 7306 bbbc 9faa bd3a 1b2b 14bc 4cb4 253c
00000250: 35ed 55bb cbcb 963b 6b5a 1dbc e9bc a839
00000260: a77a 29bc e2db 313b 09dd 473b 99dd 583b
00000270: 7149 e73a b6c8 95bc 2c53 1ebc 18da 3d3c
00000280: b7c4 7fbc 070a 7bbb 1879 73bb 3957 153c
00000290: 9da8 173c 423e 2cbc e8dd 363c a942 9e3b
000002a0: 5201 18bc 07a1 ad3c eb54 113c a529 483a
000002b0: 3b18 a43b 03d0 6ebc 4a4e 57bb aec5 013c
000002c0: e866 793c ded2 79bb d1d2 00bb ee11 193c
000002d0: 5f27 2abc 6e7d 483c 7001 363c eefe fabb
000002e0: eee9 d53b 8e02 b73c 3abb a23c 4b47 943b
000002f0: f5ac 253c b2f1 79bc 0751 6d3c c3ab 68bc
00000300: 934d 0b3c 7d22 4cbc 6709 0eba 8bf5 d2ba
00000310: 4fb8 3fba afcb eebb 67c2 2ebc 18eb 28bb
00000320: a95d d63b 5bd5 a9ba 421d e03b f6de 61ba
00000330: 2490 123c df16 043c 45b7 d1b9 0fb3 213c
00000340: 46c1 4f3b f358 2239 0935 263b 9ffe 9b39
00000350: df26 8fbb 9322 d43a 5a7c 7cba 46c9 003c
00000360: da51 c1bb b328 cc3b 8162 0d3c f577 1b3b
00000370: 823f 8d3b cd8c a3b9 eaf0 94ba 7584 0ebc
00000380: a755 b3bb 0026 883b 6d27 1e3a e288 6e3c
00000390: 05ea b4bb f198 123b 5f27 5bbc a775 ddba
000003a0: 832d 8bba 57bd 173b 6b53 183b 76cf 71bb
000003b0: bd43 703b 8fad 8cba a5f0 cc3a 9928 30bc
000003c0: bfcf 0ebc a4e2 db3b dc9b bfbc 98d3 4fbc
000003d0: 4b50 0a3c b08b bebb af25 393c ccb9 efbb
000003e0: d852 60bc 909a acbb a9be 82bb c8e2 3abc
000003f0: f822 513b 965a 853c 9d48 d63b 7364 b03c
0.0014816783 -0.010452756 -0.021926431 -0.0078697605 -0.00045885332 -0.0038653347 -0.01108502 0.013569
-0.00013706875 0.021308312 0.004776453 0.0052406806 -0.012174553 -0.0015507 -0.007462575 0.0022962212
-0.0252246 0.0017430389 -0.0050113425 -0.017513564 0.0025093213 -0.015931215 -0.01578444 -0.00027833346
0.0073153568 0.0027952683 -0.0027398085 0.0047079506 -0.0039609354 0.01497494 0.007670976 0.0034506798
0.0046051084 -0.0053442135 -0.005021787 0.010162661 0.010431074 0.0017715063 0.013167762 0.001268818
0.007418165 -0.009156764 0.0012051925 0.007084899 -0.011350198 -0.0054162634 -0.0015433265 -0.008954542
-0.00621683 -0.0033520474 0.0012146435 -0.00077634054 0.011441032 0.0040700096 0.0013536757 -0.004639703
0.0044937986 -0.035572514 0.010339021 -0.0079697985 0.00020518157 -0.008360645 0.008795215 0.0051650875
0.0022912158 -0.0043659112 -0.00011301743 0.00091104227 -0.0016908853 0.015496466 -0.008446986 -0.0042017787
-0.002972033 0.019073715 0.0101594925 -0.0025289226 0.022939183 0.0066708717 -0.004823853 0.0053050728
0.00521482 -0.0031609382 -0.011020634 -0.00090770907 0.008648964 0.0034583774 -0.0044670566 -0.05733452
-0.002645923 0.0047789463 0.0040898994 0.006003973 -0.00063316384 -0.02323983 0.0014606409 0.008979342
-0.0020936027 0.0019516465 -0.0024972598 -0.0025900106 0.009879367 -0.008489645 0.002861647 -0.011384155
0.0014097368 1.3830786e-05 -0.009614881 0.012228713 -0.0026475594 0.047800172 0.009636907 -0.00039806237
-0.020823242 0.0024196692 -0.006453504 0.017199315 -0.012999366 -0.0025174401 -0.0032103828 -0.0105559165
-0.00019690127 -0.014295678 0.011007834 0.001596065 0.008480911 0.002350885 -0.008734494 0.0053210845
0.011079849 -0.0048489473 -0.020354137 0.01071763 -0.003887455 0.012236506 0.00941174 0.0014006465
0.008197608 -0.0011886735 0.009796025 0.008017425 -0.015679654 0.0018336849 0.0033380906 -0.0033026873
-0.022830224 0.0014470405 -0.00904348 0.010113787 -0.0032642607 0.0046019307 -0.009604077 0.00032184206
-0.010344184 0.0027139117 0.0030496737 0.0033091067 0.0017645789 -0.018284183 -0.009663384 0.011587642
-0.015610865 -0.0038305537 -0.0037151035 0.009115034 0.009256509 -0.01051289 0.011161305 0.004829724
-0.009277659 0.021194948 0.008870344 0.00076356 0.0050077713 -0.014575961 -0.003285306 0.007920666
0.015222289 -0.0038120071 -0.0019656906 0.009342654 -0.010385363 0.012236936 0.011108741 -0.0076597845
0.0065281307 0.022340085 0.019864667 0.0045251003 0.010112037 -0.015255379 0.01448465 -0.014201107
0.008502382 -0.0124593945 -0.0005418271 -0.0016094906 -0.0007313536 -0.0072874646 -0.010666466 -0.0025774892
0.006541927 -0.0012957262 0.0068394253 -0.00086162926 0.008945499 0.0080620935 -0.00040000133 0.009869351
0.0031700893 0.0001548266 0.0025361201 0.0002975361 -0.0043686475 0.001618462 -0.0009631567 0.007860487
-0.00589965 0.0062304377 0.008629442 0.0023722623 0.0043105492 -0.00031194687 -0.0011363302 -0.008698572
-0.005472857 0.0041549206 0.00060330966 0.014559003 -0.0055210614 0.0022368992 -0.013376086 -0.0016896025
-0.0010618422 0.0023153627 0.002324308 -0.0036897338 0.003666147 -0.0010732877 0.0015635683 -0.010751867
-0.008716523 0.0067103673 -0.02338975 -0.012684725 0.008441995 -0.005814992 0.011300488 -0.00731585
-0.0136916265 -0.0052674487 -0.0039900136 -0.011406608 0.0031911712 0.016278546 0.006539418 0.021532273
