slop_min5_openai-large/topic_embeddings.safetensors (safetensors, 36952 bytes, 1 tensors)

topic_embeddings f4 [3, 3072]
0	0xbbcd5b7a	-0.0062670084
1	0xbd2269ff	-0.039651867
2	0xbc8f39ec	-0.017483674
3	0xbc4ef6ab	-0.012632052
4	0x3ccf31cb	0.025292298
5	0x3b93b2b9	0.0045073894
6	0xbccb654e	-0.02482858
7	0xbb0962f6	-0.0020963526
8	0xbae0b0be	-0.0017142517
9	0x3cb98317	0.022645516
10	0x3cfc5266	0.03080101
11	0xbcb45e58	-0.022017643
12	0xbb59a97b	-0.003321259
13	0xbce4b2fd	-0.02791738
14	0xbc5aa697	-0.013345382
15	0x3b220c78	0.002472667
16	0xbd1f8736	-0.038947307
17	0xbc8bec48	-0.017080441
18	0x3c99592c	0.018719278
19	0xbc7aad93	-0.015300172
20	0x3c06a858	0.008218847
21	0xba53033c	-0.0008049493
22	0xbd31abdb	-0.043376785
23	0x3a65584e	0.0008748815
24	0x3c7354f7	0.0148518
25	0x3bdd2255	0.0067484775
26	0xbcac9b1c	-0.021070056
27	0x3c02d372	0.007984983
28	0xbc032992	-0.008005517
29	0x3d1469cb	0.036233705
30	0x3bc7b928	0.0060950704
31	0x3bd869dd	0.0066044168
32	0x3c8d0912	0.01721624
33	0xbd5277d7	-0.05138382
34	0x3c2ee64e	0.010675026
35	0x3d11d648	0.035604745
36	0x3c85c082	0.016327146
37	0x3cd09af8	0.02546452
38	0x3cac1ab2	0.021008823
39	0x3c5effbb	0.013610776
40	0x3c168355	0.009186585
41	0x3b84dfe1	0.0040550088
42	0x3c14c9ea	0.009081343
43	0xbc03a895	-0.008035799
44	0xbd4c26f2	-0.04984183
45	0xbbeb07ad	-0.007172546
46	0xbb1aaff1	-0.0023603404
47	0xbcd9694e	-0.026539471
48	0x3bb67eb3	0.005569303
49	0x3b801a1a	0.0039093615
50	0x3c93c053	0.018036043
51	0x3ca0be86	0.019622099
52	0x3c413a4b	0.011793683
53	0x3c5b7e7d	0.013396856
54	0xbcbfea46	-0.02342714
55	0xbc9dcee7	-0.019263698
56	0xbc00dd48	-0.007865258
57	0xbd6fbc10	-0.05852896
58	0x3c88a248	0.016678944
59	0x3aff9bba	0.0019501366
60	0x3b858cb3	0.0040756105
61	0x3c2a80da	0.010406697
62	0x3bb486c7	0.005509231
63	0x3c0c7f45	0.008575265
64	0xbc02d443	-0.007985177
65	0x3cc7a3f3	0.02437017
66	0xbbe8a423	-0.0070996447
67	0x3a95871c	0.0011408064
68	0x3bb7cb4f	0.005608953
69	0xbc3d0d86	-0.011538869
70	0xbc867604	-0.016413696
71	0xbbe4f913	-0.0069877
72	0xbb1b7394	-0.0023720013
73	0x3ce750af	0.028236715
74	0x3c870788	0.016483083
75	0xbc85d573	-0.016337132
76	0x3c9e0826	0.019290995
77	0x3cc76395	0.024339477
78	0xbb730293	-0.0037080392
79	0x3cc334d6	0.023828905
80	0xbba8f82e	-0.0051565384
81	0x3bb5755f	0.0055376734
82	0xbab136ee	-0.0013520399
83	0xbcb7a7a4	-0.022418804
84	0x3c963037	0.018333538
85	0x3c695998	0.014242552
86	0xbbe6be2f	-0.0070417146
87	0xbd9680b6	-0.073487684
88	0x3c2098c3	0.009802046
89	0x3be47a48	0.006972585
90	0xbcbbbd4a	-0.022917408
91	0xbb88ed1d	-0.0041786567
92	0x3ba112ac	0.004915556
93	0xbd059260	-0.032610297
94	0x3c231b3f	0.009955226
95	0xbc278422	-0.010224374
96	0x3b72cbe5	0.00370478
97	0xbb3d0acd	-0.002884555
98	0xbcc451f8	-0.023964867
99	0x3c64bbe6	0.013960814
100	0x3b3cbccd	0.0028799057
101	0xbc97df15	-0.018538991
102	0x3cc51fb3	0.024062967
103	0xbc07e652	-0.008294659
104	0xba3fb828	-0.0007313513
105	0xbca209a3	-0.019779986
106	0xbc5fdcf6	-0.013663521
107	0xbc12ece4	-0.008967612
108	0xbbeeab6c	-0.0072836187
109	0x3d8ee8c8	0.06977993
110	0x3d090e9f	0.03346121
111	0xbc85d1a0	-0.016335309
112	0xbcf3d273	-0.029763436
113	0x3b15fce5	0.0022886333
114	0xbc9fc713	-0.019504106
115	0x3c768f17	0.015048764
116	0xbc879566	-0.01655073
117	0x3bf68a84	0.0075238366
118	0x3ad27aa9	0.0016058284
119	0xbb82ada5	-0.003987985
120	0xbcf9f2d1	-0.030511292
121	0xbcf8190c	-0.03028538
122	0x3ccac0b0	0.024750084
123	0x3cd59de2	0.026076261
124	0x3c0ec7d3	0.008714634
125	0xb93a5f35	-0.0001777381
126	0xbce49312	-0.02790216
127	0xba56ff6b	-0.00082015124
128	0x3cf03ab8	0.029324874
129	0xbc888cbb	-0.016668668
130	0xbd42380a	-0.047416724
131	0x3c7f3535	0.01557665
132	0xbcb63459	-0.022241758
133	0x3ccda112	0.025101218
134	0x3bc739e7	0.0060799005
135	0xbc5a9a9b	-0.013342525
136	0xbc6a89d8	-0.014315091
137	0x3b29ccd7	0.0025909448
138	0x3d03eb05	0.032206554
139	0x3c2336f5	0.009961833
140	0xbc250430	-0.010071799
141	0x3b8e222f	0.004337571
142	0xbc042108	-0.008064516
143	0xbd1849be	-0.0371797
144	0xbd5a9394	-0.053363398
145	0x3c29bdfb	0.010360236
146	0xbd06f4b1	-0.0329482
147	0x3bd88468	0.006607581
148	0xbc2f5be1	-0.010703058
149	0x3bf9dd26	0.00762524
150	0xbcc84d06	-0.02445079
151	0x3aa47383	0.0012546632
152	0xbcf60383	-0.030030971
153	0x3a2a83ad	0.00065046066
154	0xbbb0143f	-0.0053735073
155	0xbc6c842f	-0.014435812
156	0xbaa199c3	-0.001232915
157	0xbd0c74ee	-0.0342912
158	0xbbcbd118	-0.0062199943
159	0x3acc40ef	0.0015583317
160	0xbd28c5f3	-0.041204404
161	0xbce44332	-0.027864072
162	0x3c4b9f67	0.012428141
163	0x3c553cd4	0.013014991
164	0x3cee7bc8	0.029111758
165	0xbc7fd80a	-0.015615473
166	0x3c1f735a	0.009732092
167	0x3a91367a	0.0011078857
168	0xbc9e4b72	-0.019323085
169	0x3d11da24	0.035608426
170	0xbc6c2007	-0.014411933
171	0x39c85d7d	0.00038216627
172	0xbc130bbf	-0.008974968
173	0xbd204dc1	-0.039136652
174	0xbc2f06a3	-0.010682735
175	0x3c9cb70d	0.019130254
176	0x3cc9ea8e	0.024647977
177	0x3b0b02e7	0.0021211447
178	0xbcbdae06	-0.02315427
179	0x3b559cd9	0.003259471
180	0xbc5d9b2f	-0.013525768
181	0x3c01adcd	0.0079149725
182	0x3cfbcd43	0.030737525
183	0xbc72578f	-0.014791383
184	0xbb8e8268	-0.0043490417
185	0x3cd63088	0.026146188
186	0x3c7c8c55	0.015414317
187	0x3c9f02d1	0.019410523
188	0x3c877206	0.016533863
189	0xbcd22ce3	-0.02565617
190	0xbb9e8905	-0.0048381113
191	0xbd0e6a1a	-0.034769155
192	0x3c9e6beb	0.019338569
193	0xbc76db2b	-0.015066902
194	0xbcf93e05	-0.030425081
195	0xbc77128c	-0.0150801055
196	0xbc245308	-0.010029562
197	0xbc8dce09	-0.01731016
198	0xbce65fc9	-0.028121846
199	0x3c77ae6e	0.015117271
200	0x3ca6df28	0.020370081
201	0x3add9556	0.0016905467
202	0xbbaf3bb1	-0.005347692
203	0x3c98e403	0.018663412
204	0x3c42e786	0.01189602
205	0xbb4ad269	-0.0030948168
206	0xbbe6748b	-0.007032936
207	0x3c92cab4	0.017918922
208	0x3b95814b	0.004562532
209	0xbc7171d0	-0.014736608
210	0xbb33f0c4	-0.002745674
211	0xbc1819c3	-0.009283486
212	0x3c15b721	0.0091379
213	0x3c06ee9c	0.0082356
214	0xbb82dd73	-0.003993684
215	0x3cd5a1ad	0.02607807
216	0x3c08ccd7	0.008349619
217	0x3cb5876d	0.022159303
218	0xbaf1dcef	-0.0018452684
219	0x3c368868	0.01114092
220	0x3c6eb39b	0.0145691885
221	0xbc7ac7ae	-0.015306396
222	0x3bdcf5da	0.006743175
223	0xbcc29410	-0.023752242
224	0xbb2cae6d	-0.0026349083
225	0xbc1c50d7	-0.009540758
226	0x3a5dcbce	0.000846085
227	0x3d146f7b	0.03623913
228	0xbca24837	-0.019809825
229	0x3b8abdcd	0.004234052
230	0xbcb73ccd	-0.02236786
231	0xbb949f77	-0.0045356113
232	0xbca924b6	-0.020647388
233	0xbc8dab89	-0.017293708
234	0x3cede78a	0.02904107
235	0xbb1cd797	-0.0023932212
236	0xbc31d3bc	-0.010853704
237	0x3c264edc	0.0101506375
238	0xbc5e0914	-0.013551969
239	0xbc80f4da	-0.015741754
240	0x3bcc30cd	0.0062314034
241	0x3c9c3e5a	0.0190727
242	0xbca9f5d4	-0.020747103
243	0xbcb59838	-0.02216731
244	0xb9d74324	-0.0004105802
245	0xbb1b3b14	-0.0023686336
246	0x3cd73246	0.02626909
247	0xbcb16108	-0.021652713
248	0xbce07025	-0.027397225
249	0x3c3964fa	0.011315579
250	0x3aad9a84	0.0013244902
251	0x3c00c7af	0.007860108
252	0xb6e8872b	-6.9298744e-06
253	0x3cf91eae	0.030410137
254	0x3c75e0cf	0.015007212
255	0x3bee436e	0.007271222
