slop_min5_minilm/topic_embeddings.safetensors (safetensors, 4696 bytes, 1 tensors)

topic_embeddings f4 [3, 384]
000000 4a b9 5d bd f3 35 dd bb cc 5f 33 3b b5 14 70 3b
       -0.054131784 -0.006750816 0.0027370332 0.0036633436
000010 16 78 83 3d 77 b2 7b bc 07 ba 10 3d 84 dc db bc
       0.06419389 -0.015362374 0.03533366 -0.026838548
000020 65 2c 77 3c 2a 40 4a bd 00 65 9a 3c 34 04 a2 3b
       0.015086268 -0.049377598 0.018846989 0.0049443487
000030 17 eb 12 3c 00 e8 fd bb c3 c1 09 3c e9 35 6b bc
       0.008967183 -0.007748604 0.008408013 -0.014356115
000040 02 3b d0 3c 54 f4 22 bd b4 98 5a bd 06 6c 30 3c
       0.025418762 -0.03978379 -0.053368285 0.010767942
000050 e6 31 b1 3c 76 0e 3d bc d9 74 4c 3a 44 ca 8b 3c
       0.021630239 -0.011539092 0.0007799394 0.017064221
000060 d4 30 08 bd 17 51 a9 3c c2 21 40 bc 77 36 d6 bc
       -0.03324969 0.02066855 -0.0117267985 -0.026149018
000070 8b bf d8 bc d4 50 83 ba e4 0e b2 3c c4 20 bb 3c
       -0.026458522 -0.0010018595 0.021735616 0.022842772
000080 a9 0b 30 3c a4 1f 68 bb 62 c0 8d 3c e4 7c 17 bc
       0.0107449675 -0.003541925 0.01730365 -0.009246085
000090 18 53 00 3c 2a be 2d 3c f6 2d 15 3d 43 e7 15 3c
       0.007832311 0.010604421 0.036420785 0.009149375
0000a0 ab 2c 27 3c 27 f2 8f bd ff d2 b6 bb 0e 8a 58 ba
       0.010203521 -0.07028609 -0.005579352 -0.0008260318
0000b0 a5 d1 11 3d e5 5c e8 3c 7c 8e 50 bb 0b ce 69 3b
       0.035600323 0.028364608 -0.0031823209 0.003567579
0000c0 90 d6 2e bc 12 27 8a bb db f4 21 bd 6c 96 d4 bc
       -0.010671273 -0.0042160833 -0.039540153 -0.025950633
0000d0 62 62 96 3c 91 7c 52 bd ff 93 20 bc 24 99 01 bd
       0.01835746 -0.051388327 -0.00980091 -0.031640187
0000e0 93 b2 21 3c 7f d3 d2 bb 10 cb 14 3d 68 7d 90 3c
       0.009869236 -0.0064339037 0.036326468 0.017637923
0000f0 c7 a6 01 3d 13 f3 2f bc 32 19 14 3d 0f 86 b2 3c
       0.031653192 -0.010739106 0.03615684 0.02179244
000100 84 ad 01 3d ae 70 3b bb 49 91 29 bc b7 e4 e6 bc
       0.031659618 -0.0028601098 -0.01034958 -0.028185232
000110 85 e1 a8 bc 2a 70 87 bc b6 38 40 3d 89 e6 f1 3b
       -0.020615349 -0.016532976 0.046929084 0.0073822183
000120 c4 64 a6 3c 48 c3 dd 3c 35 58 e5 ba 8c 85 7b 3b
       0.02031172 0.027070656 -0.0017497601 0.003837916
000130 50 bf de 3c 22 a5 88 bc f7 ca da b9 bb c2 ee bb
       0.027190834 -0.016680304 -0.0004173142 -0.0072863973
000140 08 96 83 3d f9 40 f6 bc 3b 6e fb 3b 6e 81 17 3c
       0.064251006 -0.030060278 0.0076730526 0.009247167
000150 c7 c7 57 bc 5c 57 a5 bb 64 75 eb bb d4 57 15 bc
       -0.013170189 -0.0050458144 -0.007185625 -0.009115178
000160 c2 f8 89 3c dd d1 38 3d 94 78 7c bd 75 25 37 bc
       0.01684225 0.045122016 -0.06163843 -0.011178364
000170 c8 53 22 bc ab bc 1f 3c 92 17 00 3d 12 10 9f bc
       -0.00990767 0.009749572 0.03127248 -0.019416843
000180 6a 35 33 bd fc 62 ce bb 67 5a bf bc e7 ea 41 3d
       -0.04375211 -0.006298421 -0.023358537 0.04734316
000190 4b 4f d3 bc 84 d2 38 3d c4 c3 76 bc 28 2a 38 bd
       -0.025794646 0.04512264 -0.015061323 -0.04496208
0001a0 60 13 e2 3b 54 3d 40 bd a9 be ef bc 2b d5 2f bb
       0.0068992823 -0.046933487 -0.029265719 -0.002682994
0001b0 9d d5 9f 3b 36 90 31 3d 79 5d 71 bc 5c d8 db 3b
       0.0048777596 0.04335042 -0.014731758 0.0067091417
0001c0 57 27 74 3c 1c c0 8c bd 3b f4 a4 3c 8e 2f 7c bb
       0.0149019575 -0.068725795 0.02013599 -0.0038480493
0001d0 05 bd e4 bc 84 c3 b7 3c 72 9b 63 3c 70 ef 6e 3c
       -0.027922163 0.022432096 0.0138920415 0.014583454
0001e0 65 67 52 3d 3f 20 a4 3d e9 9d 0b bc d7 05 11 3d
       0.051368136 0.08013963 -0.008521535 0.03540596
0001f0 eb 04 45 3d 7c 5a 48 bb 4e 7a 99 bc 38 43 5b 09
       0.048100393 -0.003057151 -0.018735077 2.6392772e-33
000200 7c c6 af bb 3d a5 08 3d 04 36 71 3c 10 4c 89 3c
       -0.0053642374 0.03336071 0.014722351 0.016759902
000210 79 92 b3 3d ad d9 8e bc 85 82 1a bd 28 5a c4 bb
       0.08768172 -0.01743778 -0.03772213 -0.005992193
000220 47 f9 2e 3c 1e c3 25 3d 70 8b 97 3b ed 23 c1 3c
       0.01067955 0.04046928 0.0046247765 0.023576701
000230 ac 85 53 bd b4 44 e1 3c 09 49 92 3b 7c 16 33 bb
       -0.05164115 0.02749858 0.004464273 -0.0027326634
000240 94 c7 6b bc 64 86 b9 bc 34 45 a7 bc 1b 99 89 bc
       -0.014390845 -0.02264709 -0.02041874 -0.01679664
000250 d2 31 ec 3c 42 61 6a bc 8a 9e 5d 3c 50 80 ac bb
       0.02883235 -0.014305415 0.013526568 -0.0052643195
000260 04 16 85 bc 08 27 2a 3d 85 d9 f7 bb a0 e7 cb 3c
       -0.01624585 0.04154113 -0.007563772 0.02489072
000270 18 54 84 3d 16 2a 3c 3c c3 3d 29 bd 30 0b 80 3c
       0.06461352 0.011484643 -0.041318666 0.015630335
000280 0e de 28 3c c0 73 ef bc 1d 02 8c 3c f4 7b 11 bd
       0.010306848 -0.029229999 0.017090851 -0.0355186
000290 dc 2a 02 bc 63 43 a1 bd 1d 18 8f bc 60 5b ef 3c
       -0.007944789 -0.07874181 -0.017467553 0.029218376
0002a0 0d 07 9a bc 00 88 01 3d 92 f2 72 bd 70 f1 e5 3b
       -0.01880219 0.03162384 -0.059313364 0.007017307
0002b0 d2 10 5e bd 6c 1f 5c 3d f8 41 37 3c b9 ca 01 bb
       -0.05421526 0.053740904 0.011185162 -0.001980467
0002c0 4b 63 e1 b9 2e 06 86 3b c4 0e cb 3c 50 fb a2 3b
       -0.00042989323 0.004090092 0.024787314 0.0049738064
0002d0 9b 87 ae 3c 53 b7 81 3b e5 b4 1f bc 5d 41 4d bc
       0.021304896 0.0039586215 -0.009747718 -0.012527791
0002e0 b3 2c a3 bc 04 92 6f bd e5 e2 5e 3d 38 d6 d3 bc
       -0.019918775 -0.05848886 0.054415602 -0.025858983
0002f0 61 63 e2 3c f1 0c 38 3d 85 6b 91 bc cd a0 bd 3b
       0.027635278 0.044934217 -0.017751465 0.005786991
000300 ab de 69 bd b8 9e 98 3c 10 b8 04 3d d4 3b 09 3d
       -0.05709712 0.01863037 0.0324021 0.033504322
000310 32 2a d3 bb c4 3a 15 3c 02 75 17 3d 75 18 13 bc
       -0.006444239 0.009108249 0.03697682 -0.008977999
000320 dd 63 b5 bc a0 04 5b bd 5b 6b f9 bc bc 42 46 ba
       -0.022142345 -0.053471208 -0.030446699 -0.0007563045
000330 2f 25 41 3b ba 38 43 3c b7 fd 86 3c e5 50 b3 bb
       0.0029471626 0.01191538 0.016478403 -0.00547229
000340 72 ae 8a 3c 00 4c f1 bb 5c eb 57 3d f9 36 27 bd
       0.016928885 -0.0073637962 0.05271469 -0.04082391
000350 53 95 8c bc 2e 38 20 bc 7c d3 78 3b 7e 66 d0 bc
       -0.017161047 -0.009779019 0.0037967851 -0.025439497
000360 f4 04 56 bc fb 21 63 3c f3 81 3c bd 24 dd 91 bb
       -0.013062704 0.013863082 -0.046022367 -0.004451411
000370 70 7d 02 bc ec 09 2c 3c 5c 13 5a bd bb 13 a9 89
       -0.007964477 0.010500412 -0.05324112 -4.0703825e-33
000380 3e 08 44 bd 3b d7 18 bd 36 d5 16 bd 26 bd 55 3b
       -0.047859423 -0.037314635 -0.036824428 0.0032613962
000390 ae b5 a1 bc c4 02 0f bd 7b a6 91 bc 49 ab 07 bc
       -0.019739952 -0.034914747 -0.01777958 -0.008280584
0003a0 8c 84 7a 3d 1b 35 e6 3a e7 85 1b bd 34 e8 81 bb
       0.061161563 0.0017563434 -0.037969496 -0.0039644483
0003b0 9b a6 e5 bb a2 7f 20 3c b8 ae 23 3c c1 d0 d8 bc
       -0.0070083863 0.009796055 0.009990387 -0.02646673
0003c0 a7 fb 43 3d 6f 7c bc 3c 6e 5b 9e bc 44 0d aa 3b
       0.047847416 0.023008553 -0.019330706 0.0051895697
0003d0 6e 4b d4 3c 34 c2 6c 3d d6 86 a4 bd 7d eb 25 bc
       0.025914874 0.057802394 -0.080335304 -0.010126946
0003e0 b5 fc 74 bc cb 1d 37 3d 15 4c 4b 3d de a0 1c 3d
       -0.014952828 0.044706147 0.049633104 0.038239352
0003f0 e4 95 66 3c 7b 2a f2 bc 3a cd 1d bc 2f 0f 04 bc
       0.014073823 -0.029561272 -0.009631449 -0.008060261
