slop_min150_openai_sentences.ipynb/topic_embeddings.safetensors (safetensors, 36952 bytes, 1 tensors)

topic_embeddings f4 [3, 3072]
-0.007274441 -0.008729253 -0.016783228 0.007850951 0.0021542711 -0.0015888376 -0.011095553 0.03648631
-0.0013358974 0.020971261 0.023801854 -7.690109e-05 -0.006991197 -0.010748862 -0.019083472 0.007178979
-0.026426012 -0.0042379107 -0.004952722 -0.019691156 0.0019391516 -0.00376673 -0.017490229 0.004336244
0.008507937 0.005907114 0.0021476701 0.012354632 -0.001584891 0.011791116 0.020827163 0.010532436
0.010915212 0.00036087216 -0.0014736234 0.009155263 0.013977745 0.017954266 0.008494394 -0.0098186815
-0.00013631885 -0.0108806165 -0.0045895134 0.020492105 -0.006797695 -0.008908444 0.005850302 -0.007877209
0.0037605974 -0.0012253749 0.0025219172 0.00054676796 0.0023825944 -0.00026054695 0.0036605361 -0.011998401
0.0075278715 -0.0032699076 0.008804718 -0.009350595 -0.002195495 -0.00957545 0.014809846 0.004566809
0.0029437295 -0.0128632765 0.0020548925 0.0052231746 -0.0044328985 0.012777736 -0.011385028 -0.006025686
0.004383811 0.025221273 0.013864387 -0.0051909336 0.02129932 0.0059343316 -0.008918598 0.008633274
-0.0024418524 -0.004529095 -0.002590311 0.00683162 0.009029318 -0.003839878 -0.0026821024 -0.070026316
0.0053580794 0.0009676146 0.009208873 0.012403088 -0.0033069248 -0.030962227 0.0018232288 0.006940143
0.0072285933 -0.00016733224 -0.013312211 -0.0026940103 0.0010244505 -0.016424634 0.011671671 -0.017376691
0.0038519485 0.0018987948 -0.00966741 0.011377395 0.006187425 0.041392144 0.013862897 -0.010233532
-0.018881015 0.008323504 -0.020292962 0.013474635 -0.014505247 0.0027728905 0.0015099404 -4.6004287e-05
0.000590846 -0.008958329 0.011689524 -0.0051515843 0.0033856921 -0.0025222953 -0.010018437 0.0037773508
0.008176406 0.0021286735 -0.036308672 0.010808725 -0.019919502 0.013653906 0.015087304 0.010759361
0.012414539 0.012870591 0.010964505 0.020653384 -0.011041826 -0.007860811 0.01094956 -0.014225738
-0.029172786 -0.0032591575 -0.0007094262 0.007705585 0.008743488 0.006589821 -0.004281031 -0.0036968885
-0.010023732 0.0052658683 0.0014939678 0.008134374 0.003637631 -0.016539127 -0.017289756 0.013221051
-0.011516912 0.00061196956 -0.005288678 0.010416505 0.011169081 -0.013544365 0.019805884 0.00087277364
-0.015451291 0.015784651 0.0064941742 -0.010525934 0.0014004783 -0.012891406 -0.0005937293 -0.0009644687
0.026446788 -0.0065277815 -0.011908773 0.013369237 -0.012623907 0.0129377255 0.007220305 -0.0038833083
0.0044158506 0.014784796 0.034775823 0.007890777 0.0034538119 -0.01822589 0.010325173 -0.009510119
0.014740158 -0.008728779 0.00712806 -0.0045060324 0.007777566 -0.006604894 -0.028521195 -0.0006100783
0.0033391444 -0.0036382258 -0.0032707213 0.009688932 0.0027404998 0.00320409 0.008480484 0.01618336
0.009512402 0.0052800863 0.004756761 -0.004034454 -0.0035243426 0.0041232267 0.008083665 0.014942322
-0.0041865795 0.009035116 0.008197596 -0.008560141 -0.008436063 -0.010903092 0.002964391 -0.007038361
-0.0019960357 0.002571941 -0.001508271 0.018196747 -0.007151957 0.0054277494 -0.0076791495 -0.010457304
-0.010458699 0.00045036298 0.0028973187 -0.0049010427 0.0005660395 0.0023876077 -0.0075230394 -0.010701443
0.007099028 -0.0011104856 -0.016622031 -0.01606399 0.011827071 -0.005002402 0.010709615 0.012818571
-0.006133592 0.014123263 0.0031844792 -0.010666598 0.0035871554 0.023930693 0.005623174 0.014514238
00000000: 6f5e eebb 2405 0fbc fb7c 89bc 46a1 003c
00000010: ac2e 0d3b 8b40 d0ba 1fca 35bc ab72 153d
00000020: 4719 afba eccb ab3c 1bfc c23c f545 a1b8
00000030: 6916 e5bb ff1b 30bc f154 9cbc a43d eb3b
00000040: 5d7b d8bc 2cde 8abb 724a a2bb 594f a1bc
00000050: 212b fe3a 3edb 76bb ab47 8fbc 0d17 8e3b
00000060: e064 0b3c 7790 c13b edbf 0c3b 156b 4a3c
00000070: 1ebc cfba 862f 413c ba9d aa3c 3d90 2c3c
00000080: b8d5 323c 7133 bd39 9926 c1ba f5ff 153c
00000090: e902 653c d314 933c 122c 0b3c 89de 20bc
000000a0: d0f0 0eb9 9d44 32bc a163 96bb 0fdf a73c
000000b0: 33bf debb b9f4 11bc e4b3 bf3b 690f 01bc
000000c0: 5b74 763b c29c a0ba c046 253b fa54 0f3a
000000d0: 4d25 1c3b 059a 88b9 9be5 6f3b f194 44bc
000000e0: 5dac f63b f24b 56bb aa41 103c 3d33 19bc
000000f0: 4be2 0fbb 59e2 1cbc ffa4 723c 2ca5 953b
00000100: 96eb 403b 7ec0 52bc 60ab 063b 2a27 ab3b
00000110: d941 91bb b659 513c 4588 3abc 1e73 c5bb
00000120: 12a6 8f3b d89c ce3c 7427 633c b518 aabb
00000130: e97b ae3c c874 c23b 501f 12bc 9372 0d3c
00000140: 7c07 20bb cd68 94bb 35c2 29bb c8db df3b
00000150: b4ef 133c 76a6 7bbb 36c6 2fbb f569 8fbd
00000160: d492 af3b 84a7 7d3a d0e0 163c 5236 4b3c
00000170: feb8 58bb 7fa4 fdbc 68f9 ee3a 246a e33b
00000180: d6dd ec3b e875 2fb9 761b 5abc fe8d 30bb
00000190: db46 863a f48c 86bc 893a 3f3c 9059 8ebc
000001a0: f970 7c3b fbe0 f83a 0e64 1ebc 4168 3a3c
000001b0: e2bf ca3b cf8a 293d 3421 633c 8baa 27bc
000001c0: 5cac 9abc 4e5f 083c 6d3d a6bc b7c4 5c3c
000001d0: 6aa7 6dbc 62b9 353b 31e9 c53a baf4 40b8
000001e0: 01e3 1a3a f5c5 12bc 6b85 3f3c 9fce a8bb
000001f0: 7de2 5d3b 184d 25bb 5f24 24bc 6e8d 773b
00000200: 55f6 053c 3781 0b3b 67b8 14bd 1417 313c
00000210: 392e a3bc a2b4 5f3c bd30 773c 0848 303c
00000220: 5a66 4b3c 2cdf 523c 78a4 333c 4931 a93c
00000230: c6e8 34bc a2ca 00bc c965 333c 1213 69bc
00000240: c4fb eebc 9797 55bb c9f8 39ba 227f fc3b
00000250: d940 0f3c 6def d73b e447 8cbb 7f47 72bb
00000260: 943a 24bc 4e8d ac3b 3ed1 c33a 0a46 053c
00000270: 5265 6e3b 107d 87bc 3fa3 8dbc 1b9d 583c
00000280: 6eb1 3cbc 956c 203a a64c adbb fda9 2a3c
00000290: 85fe 363c 2fe9 5dbc f33f a23c d9ca 643a
000002a0: 6927 7dbc d04e 813c 15cd d43b f874 2cbc
000002b0: 4190 b73a 7a36 53bc 80a4 1bba 66d4 7cba
000002c0: efa6 d83c 00e7 d5bb 041d 43bc a50a 5b3c
000002d0: 81d4 4ebc c1f8 533c 4f98 ec3b 1a7f 7ebb
000002e0: d7b2 903b ee3b 723c 1871 0e3d 5148 013c
000002f0: 5959 623b 764e 95bc ea2a 293c 55d0 1bbc
00000300: b480 713c 2703 0fbc 8092 e93b 57a7 93bb
00000310: f4da fe3b de6d d8bb 48a5 e9bc a9ed 1fba
00000320: 8cd5 5a3b 4d6f 6ebb 9959 56bb 54be 1e3c
00000330: f599 333b b6fb 513b baf1 0a3c f792 843c
00000340: e8d9 1b3c 9304 ad3b 9ade 9b3b 7433 84bb
00000350: a8f8 66bb 221c 873b 5971 043c a4d0 743c
00000360: 932f 89bb 0608 143c 364f 063c d53f 0cbc
00000370: 6a37 0abc e2a2 32bc 3a46 423b 0da2 e6bb
00000380: eccf 02bb 028e 283b 2db1 c5ba 5811 953c
00000390: f75a eabb 43db b13b 60a1 fbbb 1d55 2bbc
000003a0: f75a 2bbc b21e ec39 f1e0 3d3b ed98 a0bb
000003b0: 4562 143a 6979 1c3b d483 f6bb 1b55 2fbc
000003c0: f79e e83b b78d 91ba ed2a 88bc a198 83bc
000003d0: 55c6 413c 30eb a3bb 6277 2f3c fc04 523c
000003e0: 4dfc c8bb 4265 673c b2b2 503b f4c2 2ebc
000003f0: 7b16 6b3b 4d0a c43c 9a42 b83b 20cd 6d3c
